2024-04-09 07:43:59,236 [INFO] Model architecture: Model: "sequential_19"
┏━━━━━━━━━━━━━━━━━━━━━━━━━━━━━━━━━━━━━━┳━━━━━━━━━━━━━━━━━━━━━━━━━━━━━┳━━━━━━━━━━━━━━━━━┓
┃ Layer (type)                         ┃ Output Shape                ┃         Param # ┃
┡━━━━━━━━━━━━━━━━━━━━━━━━━━━━━━━━━━━━━━╇━━━━━━━━━━━━━━━━━━━━━━━━━━━━━╇━━━━━━━━━━━━━━━━━┩
│ conv_lstm2d_76 (ConvLSTM2D)          │ (None, 20, 62, 62, 4)       │           1,024 │
├──────────────────────────────────────┼─────────────────────────────┼─────────────────┤
│ max_pooling3d_76 (MaxPooling3D)      │ (None, 20, 31, 31, 4)       │               0 │
├──────────────────────────────────────┼─────────────────────────────┼─────────────────┤
│ time_distributed_57                  │ (None, 20, 31, 31, 4)       │               0 │
│ (TimeDistributed)                    │                             │                 │
├──────────────────────────────────────┼─────────────────────────────┼─────────────────┤
│ conv_lstm2d_77 (ConvLSTM2D)          │ (None, 20, 29, 29, 8)       │           3,488 │
├──────────────────────────────────────┼─────────────────────────────┼─────────────────┤
│ max_pooling3d_77 (MaxPooling3D)      │ (None, 20, 15, 15, 8)       │               0 │
├──────────────────────────────────────┼─────────────────────────────┼─────────────────┤
│ time_distributed_58                  │ (None, 20, 15, 15, 8)       │               0 │
│ (TimeDistributed)                    │                             │                 │
├──────────────────────────────────────┼─────────────────────────────┼─────────────────┤
│ conv_lstm2d_78 (ConvLSTM2D)          │ (None, 20, 13, 13, 14)      │          11,144 │
├──────────────────────────────────────┼─────────────────────────────┼─────────────────┤
│ max_pooling3d_78 (MaxPooling3D)      │ (None, 20, 7, 7, 14)        │               0 │
├──────────────────────────────────────┼─────────────────────────────┼─────────────────┤
│ time_distributed_59                  │ (None, 20, 7, 7, 14)        │               0 │
│ (TimeDistributed)                    │                             │                 │
├──────────────────────────────────────┼─────────────────────────────┼─────────────────┤
│ conv_lstm2d_79 (ConvLSTM2D)          │ (None, 20, 5, 5, 16)        │          17,344 │
├──────────────────────────────────────┼─────────────────────────────┼─────────────────┤
│ max_pooling3d_79 (MaxPooling3D)      │ (None, 20, 3, 3, 16)        │               0 │
├──────────────────────────────────────┼─────────────────────────────┼─────────────────┤
│ flatten_19 (Flatten)                 │ (None, 2880)                │               0 │
├──────────────────────────────────────┼─────────────────────────────┼─────────────────┤
│ dense_19 (Dense)                     │ (None, 4)                   │          11,524 │
└──────────────────────────────────────┴─────────────────────────────┴─────────────────┘
 Total params: 44,524 (173.92 KB)
 Trainable params: 44,524 (173.92 KB)
 Non-trainable params: 0 (0.00 B)

2024-04-09 07:44:55,044 [INFO] Confusion Matrix:
[[3 0 1 0]
 [0 2 0 0]
 [0 0 3 0]
 [0 0 1 3]]
2024-04-09 07:44:55,115 [INFO] Classification Report:
               precision    recall  f1-score   support
…
