2024-05-07 20:55:20,197 [INFO] Model architecture: TimesformerForVideoClassification(
  (timesformer): TimesformerModel(
    (embeddings): TimesformerEmbeddings(
      (patch_embeddings): TimesformerPatchEmbeddings(
        (projection): Conv2d(3, 768, kernel_size=(16, 16), stride=(16, 16))
      )
      (pos_drop): Dropout(p=0.0, inplace=False)
      (time_drop): Dropout(p=0.0, inplace=False)
    )
    (encoder): TimesformerEncoder(
      (layer): ModuleList(
        (0-11): 12 x TimesformerLayer(
          (drop_path): Identity()
          (attention): TimeSformerAttention(
            (attention): TimesformerSelfAttention(
              (qkv): Linear(in_features=768, out_features=2304, bias=True)
              (attn_drop): Dropout(p=0.0, inplace=False)
            )
            (output): TimesformerSelfOutput(
              (dense): Linear(in_features=768, out_features=768, bias=True)
              (dropout): Dropout(p=0.0, inplace=False)
            )
          )
          (intermediate): TimesformerIntermediate(
            (dense): Linear(in_features=768, out_features=3072, bias=True)
            (dropout): Dropout(p=0.0, inplace=False)
            (intermediate_act_fn): GELUActivation()
          )
          (output): TimesformerOutput(
            (dense): Linear(in_features=3072, out_features=768, bias=True)
            (dropout): Dropout(p=0.0, inplace=False)
          )
          (layernorm_before): LayerNorm((768,), eps=1e-06, elementwise_affine=True)
          (layernorm_after): LayerNorm((768,), eps=1e-06, elementwise_affine=True)
          (temporal_layernorm): LayerNorm((768,), eps=1e-06, elementwise_affine=True)
          (temporal_attention): TimeSformerAttention(
            (attention): TimesformerSelfAttention(
              (qkv): Linear(in_features=768, out_features=2304, bias=True)
              (attn_drop): Dropout(p=0.0, inplace=False)
            )
            (output): TimesformerSelfOutput(
              (dense): Linear(in_features=768, out_features=768, bias=True)
              (dropout): Dropout(p=0.0, inplace=False)
            )
          )
          (temporal_dense): Linear(in_features=768, out_features=768, bias=True)
        )
      )
    )
    (layernorm): LayerNorm((768,), eps=1e-06, elementwise_affine=True)
  )
  (classifier): Linear(in_features=768, out_features=4, bias=True)
)
