2024-05-09 22:07:35,792 [INFO] Model architecture: Model: "functional_1"
┏━━━━━━━━━━━━━━━━━━━━━━━━━━━━━━━┳━━━━━━━━━━━━━━━━━━━━━━━━━━━┳━━━━━━━━━━━━━━━━━┳━━━━━━━━━━━━━━━━━━━━━━━━━━━━┓
┃ Layer (type)                  ┃ Output Shape              ┃         Param # ┃ Connected to               ┃
┡━━━━━━━━━━━━━━━━━━━━━━━━━━━━━━━╇━━━━━━━━━━━━━━━━━━━━━━━━━━━╇━━━━━━━━━━━━━━━━━╇━━━━━━━━━━━━━━━━━━━━━━━━━━━━┩
│ input_layer (InputLayer)      │ (None, 224, 224, 3)       │               0 │ -                          │
├───────────────────────────────┼───────────────────────────┼─────────────────┼────────────────────────────┤
│ conv2d (Conv2D)               │ (None, 112, 112, 64)      │           9,472 │ input_layer[0][0]          │
├───────────────────────────────┼───────────────────────────┼─────────────────┼────────────────────────────┤
│ max_pooling2d (MaxPooling2D)  │ (None, 56, 56, 64)        │               0 │ conv2d[0][0]               │
├───────────────────────────────┼───────────────────────────┼─────────────────┼────────────────────────────┤
│ batch_normalization           │ (None, 56, 56, 64)        │             256 │ max_pooling2d[0][0]        │
│ (BatchNormalization)          │                           │                 │                            │
├───────────────────────────────┼───────────────────────────┼─────────────────┼────────────────────────────┤
│ conv2d_1 (Conv2D)             │ (None, 56, 56, 64)        │           4,160 │ batch_normalization[0][0]  │
├───────────────────────────────┼───────────────────────────┼─────────────────┼────────────────────────────┤
│ conv2d_2 (Conv2D)             │ (None, 56, 56, 192)       │         110,784 │ conv2d_1[0][0]             │
├───────────────────────────────┼───────────────────────────┼─────────────────┼────────────────────────────┤
│ batch_normalization_1         │ (None, 56, 56, 192)       │             768 │ conv2d_2[0][0]             │
│ (BatchNormalization)          │                           │                 │                            │
├───────────────────────────────┼───────────────────────────┼─────────────────┼────────────────────────────┤
│ max_pooling2d_1               │ (None, 28, 28, 192)       │               0 │ batch_normalization_1[0][… │
│ (MaxPooling2D)                │                           │                 │                            │
├───────────────────────────────┼───────────────────────────┼─────────────────┼────────────────────────────┤
│ conv2d_4 (Conv2D)             │ (None, 28, 28, 96)        │          18,528 │ max_pooling2d_1[0][0]      │
├───────────────────────────────┼───────────────────────────┼─────────────────┼────────────────────────────┤
│ conv2d_6 (Conv2D)             │ (None, 28, 28, 16)        │           3,088 │ max_pooling2d_1[0][0]      │
├───────────────────────────────┼───────────────────────────┼─────────────────┼────────────────────────────┤
│ max_pooling2d_2               │ (None, 28, 28, 192)       │               0 │ max_pooling2d_1[0][0]      │
│ (MaxPooling2D)                │                           │                 │                            │
├───────────────────────────────┼───────────────────────────┼─────────────────┼────────────────────────────┤
│ conv2d_3 (Conv2D)             │ (None, 28, 28, 64)        │          12,352 │ max_pooling2d_1[0][0]      │
├───────────────────────────────┼───────────────────────────┼─────────────────┼────────────────────────────┤
│ conv2d_5 (Conv2D)             │ (None, 28, 28, 128)       │         110,720 │ conv2d_4[0][0]             │
├───────────────────────────────┼───────────────────────────┼─────────────────┼────────────────────────────┤
│ conv2d_7 (Conv2D)             │ (None, 28, 28, 32)        │          12,832 │ conv2d_6[0][0]             │
├───────────────────────────────┼───────────────────────────┼─────────────────┼────────────────────────────┤
│ conv2d_8 (Conv2D)             │ (None, 28, 28, 32)        │           6,176 │ max_pooling2d_2[0][0]      │
├───────────────────────────────┼───────────────────────────┼─────────────────┼────────────────────────────┤
│ concatenate (Concatenate)     │ (None, 28, 28, 256)       │               0 │ conv2d_3[0][0],            │
│                               │                           │                 │ conv2d_5[0][0],            │
│                               │                           │                 │ conv2d_7[0][0],            │
│                               │                           │                 │ conv2d_8[0][0]             │
├───────────────────────────────┼───────────────────────────┼─────────────────┼────────────────────────────┤
│ conv2d_10 (Conv2D)            │ (None, 28, 28, 128)       │          32,896 │ concatenate[0][0]          │
├───────────────────────────────┼───────────────────────────┼─────────────────┼────────────────────────────┤
│ conv2d_12 (Conv2D)            │ (None, 28, 28, 32)        │           8,224 │ concatenate[0][0]          │
├───────────────────────────────┼───────────────────────────┼─────────────────┼────────────────────────────┤
│ max_pooling2d_3               │ (None, 28, 28, 256)       │               0 │ concatenate[0][0]          │
│ (MaxPooling2D)                │                           │                 │                            │
├───────────────────────────────┼───────────────────────────┼─────────────────┼────────────────────────────┤
│ conv2d_9 (Conv2D)             │ (None, 28, 28, 128)       │          32,896 │ concatenate[0][0]          │
├───────────────────────────────┼───────────────────────────┼─────────────────┼────────────────────────────┤
│ conv2d_11 (Conv2D)            │ (None, 28, 28, 192)       │         221,376 │ conv2d_10[0][0]            │
├───────────────────────────────┼───────────────────────────┼─────────────────┼────────────────────────────┤
│ conv2d_13 (Conv2D)            │ (None, 28, 28, 96)        │          76,896 │ conv2d_12[0][0]            │
├───────────────────────────────┼───────────────────────────┼─────────────────┼────────────────────────────┤
│ conv2d_14 (Conv2D)            │ (None, 28, 28, 64)        │          16,448 │ max_pooling2d_3[0][0]      │
├───────────────────────────────┼───────────────────────────┼─────────────────┼────────────────────────────┤
│ concatenate_1 (Concatenate)   │ (None, 28, 28, 480)       │               0 │ conv2d_9[0][0],            │
│                               │                           │                 │ conv2d_11[0][0],           │
│                               │                           │                 │ conv2d_13[0][0],           │
│                               │                           │                 │ conv2d_14[0][0]            │
├───────────────────────────────┼───────────────────────────┼─────────────────┼────────────────────────────┤
│ max_pooling2d_4               │ (None, 14, 14, 480)       │               0 │ concatenate_1[0][0]        │
│ (MaxPooling2D)                │                           │                 │                            │
├───────────────────────────────┼───────────────────────────┼─────────────────┼────────────────────────────┤
│ conv2d_16 (Conv2D)            │ (None, 14, 14, 96)        │          46,176 │ max_pooling2d_4[0][0]      │
├───────────────────────────────┼───────────────────────────┼─────────────────┼────────────────────────────┤
│ conv2d_18 (Conv2D)            │ (None, 14, 14, 16)        │           7,696 │ max_pooling2d_4[0][0]      │
├───────────────────────────────┼───────────────────────────┼─────────────────┼────────────────────────────┤
│ max_pooling2d_5               │ (None, 14, 14, 480)       │               0 │ max_pooling2d_4[0][0]      │
│ (MaxPooling2D)                │                           │                 │                            │
├───────────────────────────────┼───────────────────────────┼─────────────────┼────────────────────────────┤
│ conv2d_15 (Conv2D)            │ (None, 14, 14, 192)       │          92,352 │ max_pooling2d_4[0][0]      │
├───────────────────────────────┼───────────────────────────┼─────────────────┼────────────────────────────┤
│ conv2d_17 (Conv2D)            │ (None, 14, 14, 208)       │         179,920 │ conv2d_16[0][0]            │
├───────────────────────────────┼───────────────────────────┼─────────────────┼────────────────────────────┤
│ conv2d_19 (Conv2D)            │ (None, 14, 14, 48)        │          19,248 │ conv2d_18[0][0]            │
├───────────────────────────────┼───────────────────────────┼─────────────────┼────────────────────────────┤
│ conv2d_20 (Conv2D)            │ (None, 14, 14, 64)        │          30,784 │ max_pooling2d_5[0][0]      │
├───────────────────────────────┼───────────────────────────┼─────────────────┼────────────────────────────┤
│ concatenate_2 (Concatenate)   │ (None, 14, 14, 512)       │               0 │ conv2d_15[0][0],           │
│                               │                           │                 │ conv2d_17[0][0],           │
│                               │                           │                 │ conv2d_19[0][0],           │
│                               │                           │                 │ conv2d_20[0][0]            │
├───────────────────────────────┼───────────────────────────┼─────────────────┼────────────────────────────┤
│ conv2d_23 (Conv2D)            │ (None, 14, 14, 112)       │          57,456 │ concatenate_2[0][0]        │
├───────────────────────────────┼───────────────────────────┼─────────────────┼────────────────────────────┤
│ conv2d_25 (Conv2D)            │ (None, 14, 14, 24)        │          12,312 │ concatenate_2[0][0]        │
├───────────────────────────────┼───────────────────────────┼─────────────────┼────────────────────────────┤
│ max_pooling2d_6               │ (None, 14, 14, 512)       │               0 │ concatenate_2[0][0]        │
│ (MaxPooling2D)                │                           │                 │                            │
├───────────────────────────────┼───────────────────────────┼─────────────────┼────────────────────────────┤
│ conv2d_22 (Conv2D)            │ (None, 14, 14, 160)       │          82,080 │ concatenate_2[0][0]        │
├───────────────────────────────┼───────────────────────────┼─────────────────┼────────────────────────────┤
│ conv2d_24 (Conv2D)            │ (None, 14, 14, 224)       │         226,016 │ conv2d_23[0][0]            │
├───────────────────────────────┼───────────────────────────┼─────────────────┼────────────────────────────┤
│ conv2d_26 (Conv2D)            │ (None, 14, 14, 64)        │          38,464 │ conv2d_25[0][0]            │
├───────────────────────────────┼───────────────────────────┼─────────────────┼────────────────────────────┤
│ conv2d_27 (Conv2D)            │ (None, 14, 14, 64)        │          32,832 │ max_pooling2d_6[0][0]      │
├───────────────────────────────┼───────────────────────────┼─────────────────┼────────────────────────────┤
│ concatenate_3 (Concatenate)   │ (None, 14, 14, 512)       │               0 │ conv2d_22[0][0],           │
│                               │                           │                 │ conv2d_24[0][0],           │
│                               │                           │                 │ conv2d_26[0][0],           │
│                               │                           │                 │ conv2d_27[0][0]            │
├───────────────────────────────┼───────────────────────────┼─────────────────┼────────────────────────────┤
│ conv2d_29 (Conv2D)            │ (None, 14, 14, 128)       │          65,664 │ concatenate_3[0][0]        │
├───────────────────────────────┼───────────────────────────┼─────────────────┼────────────────────────────┤
│ conv2d_31 (Conv2D)            │ (None, 14, 14, 24)        │          12,312 │ concatenate_3[0][0]        │
├───────────────────────────────┼───────────────────────────┼─────────────────┼────────────────────────────┤
│ max_pooling2d_7               │ (None, 14, 14, 512)       │               0 │ concatenate_3[0][0]        │
│ (MaxPooling2D)                │                           │                 │                            │
├───────────────────────────────┼───────────────────────────┼─────────────────┼────────────────────────────┤
│ conv2d_28 (Conv2D)            │ (None, 14, 14, 128)       │          65,664 │ concatenate_3[0][0]        │
├───────────────────────────────┼───────────────────────────┼─────────────────┼────────────────────────────┤
│ conv2d_30 (Conv2D)            │ (None, 14, 14, 256)       │         295,168 │ conv2d_29[0][0]            │
├───────────────────────────────┼───────────────────────────┼─────────────────┼────────────────────────────┤
│ conv2d_32 (Conv2D)            │ (None, 14, 14, 64)        │          38,464 │ conv2d_31[0][0]            │
├───────────────────────────────┼───────────────────────────┼─────────────────┼────────────────────────────┤
│ conv2d_33 (Conv2D)            │ (None, 14, 14, 64)        │          32,832 │ max_pooling2d_7[0][0]      │
├───────────────────────────────┼───────────────────────────┼─────────────────┼────────────────────────────┤
│ concatenate_4 (Concatenate)   │ (None, 14, 14, 512)       │               0 │ conv2d_28[0][0],           │
│                               │                           │                 │ conv2d_30[0][0],           │
│                               │                           │                 │ conv2d_32[0][0],           │
│                               │                           │                 │ conv2d_33[0][0]            │
├───────────────────────────────┼───────────────────────────┼─────────────────┼────────────────────────────┤
│ conv2d_35 (Conv2D)            │ (None, 14, 14, 144)       │          73,872 │ concatenate_4[0][0]        │
├───────────────────────────────┼───────────────────────────┼─────────────────┼────────────────────────────┤
│ conv2d_37 (Conv2D)            │ (None, 14, 14, 32)        │          16,416 │ concatenate_4[0][0]        │
├───────────────────────────────┼───────────────────────────┼─────────────────┼────────────────────────────┤
│ max_pooling2d_8               │ (None, 14, 14, 512)       │               0 │ concatenate_4[0][0]        │
│ (MaxPooling2D)                │                           │                 │                            │
├───────────────────────────────┼───────────────────────────┼─────────────────┼────────────────────────────┤
│ conv2d_34 (Conv2D)            │ (None, 14, 14, 112)       │          57,456 │ concatenate_4[0][0]        │
├───────────────────────────────┼───────────────────────────┼─────────────────┼────────────────────────────┤
│ conv2d_36 (Conv2D)            │ (None, 14, 14, 288)       │         373,536 │ conv2d_35[0][0]            │
├───────────────────────────────┼───────────────────────────┼─────────────────┼────────────────────────────┤
│ conv2d_38 (Conv2D)            │ (None, 14, 14, 64)        │          51,264 │ conv2d_37[0][0]            │
├───────────────────────────────┼───────────────────────────┼─────────────────┼────────────────────────────┤
│ conv2d_39 (Conv2D)            │ (None, 14, 14, 64)        │          32,832 │ max_pooling2d_8[0][0]      │
├───────────────────────────────┼───────────────────────────┼─────────────────┼────────────────────────────┤
│ concatenate_5 (Concatenate)   │ (None, 14, 14, 528)       │               0 │ conv2d_34[0][0],           │
│                               │                           │                 │ conv2d_36[0][0],           │
│                               │                           │                 │ conv2d_38[0][0],           │
│                               │                           │                 │ conv2d_39[0][0]            │
├───────────────────────────────┼───────────────────────────┼─────────────────┼────────────────────────────┤
│ conv2d_42 (Conv2D)            │ (None, 14, 14, 160)       │          84,640 │ concatenate_5[0][0]        │
├───────────────────────────────┼───────────────────────────┼─────────────────┼────────────────────────────┤
│ conv2d_44 (Conv2D)            │ (None, 14, 14, 32)        │          16,928 │ concatenate_5[0][0]        │
├───────────────────────────────┼───────────────────────────┼─────────────────┼────────────────────────────┤
│ max_pooling2d_9               │ (None, 14, 14, 528)       │               0 │ concatenate_5[0][0]        │
│ (MaxPooling2D)                │                           │                 │                            │
├───────────────────────────────┼───────────────────────────┼─────────────────┼────────────────────────────┤
│ conv2d_41 (Conv2D)            │ (None, 14, 14, 256)       │         135,424 │ concatenate_5[0][0]        │
├───────────────────────────────┼───────────────────────────┼─────────────────┼────────────────────────────┤
│ conv2d_43 (Conv2D)            │ (None, 14, 14, 320)       │         461,120 │ conv2d_42[0][0]            │
├───────────────────────────────┼───────────────────────────┼─────────────────┼────────────────────────────┤
│ conv2d_45 (Conv2D)            │ (None, 14, 14, 128)       │         102,528 │ conv2d_44[0][0]            │
├───────────────────────────────┼───────────────────────────┼─────────────────┼────────────────────────────┤
│ conv2d_46 (Conv2D)            │ (None, 14, 14, 128)       │          67,712 │ max_pooling2d_9[0][0]      │
├───────────────────────────────┼───────────────────────────┼─────────────────┼────────────────────────────┤
│ concatenate_6 (Concatenate)   │ (None, 14, 14, 832)       │               0 │ conv2d_41[0][0],           │
│                               │                           │                 │ conv2d_43[0][0],           │
│                               │                           │                 │ conv2d_45[0][0],           │
│                               │                           │                 │ conv2d_46[0][0]            │
├───────────────────────────────┼───────────────────────────┼─────────────────┼────────────────────────────┤
│ max_pooling2d_10              │ (None, 7, 7, 832)         │               0 │ concatenate_6[0][0]        │
│ (MaxPooling2D)                │                           │                 │                            │
├───────────────────────────────┼───────────────────────────┼─────────────────┼────────────────────────────┤
│ conv2d_48 (Conv2D)            │ (None, 7, 7, 160)         │         133,280 │ max_pooling2d_10[0][0]     │
├───────────────────────────────┼───────────────────────────┼─────────────────┼────────────────────────────┤
│ conv2d_50 (Conv2D)            │ (None, 7, 7, 32)          │          26,656 │ max_pooling2d_10[0][0]     │
├───────────────────────────────┼───────────────────────────┼─────────────────┼────────────────────────────┤
│ max_pooling2d_11              │ (None, 7, 7, 832)         │               0 │ max_pooling2d_10[0][0]     │
│ (MaxPooling2D)                │                           │                 │                            │
├───────────────────────────────┼───────────────────────────┼─────────────────┼────────────────────────────┤
│ conv2d_47 (Conv2D)            │ (None, 7, 7, 256)         │         213,248 │ max_pooling2d_10[0][0]     │
├───────────────────────────────┼───────────────────────────┼─────────────────┼────────────────────────────┤
│ conv2d_49 (Conv2D)            │ (None, 7, 7, 320)         │         461,120 │ conv2d_48[0][0]            │
├───────────────────────────────┼───────────────────────────┼─────────────────┼────────────────────────────┤
│ conv2d_51 (Conv2D)            │ (None, 7, 7, 128)         │         102,528 │ conv2d_50[0][0]            │
├───────────────────────────────┼───────────────────────────┼─────────────────┼────────────────────────────┤
│ conv2d_52 (Conv2D)            │ (None, 7, 7, 128)         │         106,624 │ max_pooling2d_11[0][0]     │
├───────────────────────────────┼───────────────────────────┼─────────────────┼────────────────────────────┤
│ concatenate_7 (Concatenate)   │ (None, 7, 7, 832)         │               0 │ conv2d_47[0][0],           │
│                               │                           │                 │ conv2d_49[0][0],           │
│                               │                           │                 │ conv2d_51[0][0],           │
│                               │                           │                 │ conv2d_52[0][0]            │
├───────────────────────────────┼───────────────────────────┼─────────────────┼────────────────────────────┤
│ conv2d_54 (Conv2D)            │ (None, 7, 7, 192)         │         159,936 │ concatenate_7[0][0]        │
├───────────────────────────────┼───────────────────────────┼─────────────────┼────────────────────────────┤
│ conv2d_56 (Conv2D)            │ (None, 7, 7, 48)          │          39,984 │ concatenate_7[0][0]        │
├───────────────────────────────┼───────────────────────────┼─────────────────┼────────────────────────────┤
│ max_pooling2d_12              │ (None, 7, 7, 832)         │               0 │ concatenate_7[0][0]        │
│ (MaxPooling2D)                │                           │                 │                            │
├───────────────────────────────┼───────────────────────────┼─────────────────┼────────────────────────────┤
│ conv2d_53 (Conv2D)            │ (None, 7, 7, 384)         │         319,872 │ concatenate_7[0][0]        │
├───────────────────────────────┼───────────────────────────┼─────────────────┼────────────────────────────┤
│ conv2d_55 (Conv2D)            │ (None, 7, 7, 384)         │         663,936 │ conv2d_54[0][0]            │
├───────────────────────────────┼───────────────────────────┼─────────────────┼────────────────────────────┤
│ conv2d_57 (Conv2D)            │ (None, 7, 7, 128)         │         153,728 │ conv2d_56[0][0]            │
├───────────────────────────────┼───────────────────────────┼─────────────────┼────────────────────────────┤
│ conv2d_58 (Conv2D)            │ (None, 7, 7, 128)         │         106,624 │ max_pooling2d_12[0][0]     │
├───────────────────────────────┼───────────────────────────┼─────────────────┼────────────────────────────┤
│ concatenate_8 (Concatenate)   │ (None, 7, 7, 1024)        │               0 │ conv2d_53[0][0],           │
│                               │                           │                 │ conv2d_55[0][0],           │
│                               │                           │                 │ conv2d_57[0][0],           │
│                               │                           │                 │ conv2d_58[0][0]            │
├───────────────────────────────┼───────────────────────────┼─────────────────┼────────────────────────────┤
│ average_pooling2d             │ (None, 4, 4, 512)         │               0 │ concatenate_2[0][0]        │
│ (AveragePooling2D)            │                           │                 │                            │
├───────────────────────────────┼───────────────────────────┼─────────────────┼────────────────────────────┤
│ average_pooling2d_1           │ (None, 4, 4, 528)         │               0 │ concatenate_5[0][0]        │
│ (AveragePooling2D)            │                           │                 │                            │
├───────────────────────────────┼───────────────────────────┼─────────────────┼────────────────────────────┤
│ average_pooling2d_2           │ (None, 1, 1, 1024)        │               0 │ concatenate_8[0][0]        │
│ (AveragePooling2D)            │                           │                 │                            │
├───────────────────────────────┼───────────────────────────┼─────────────────┼────────────────────────────┤
│ conv2d_21 (Conv2D)            │ (None, 4, 4, 128)         │          65,664 │ average_pooling2d[0][0]    │
├───────────────────────────────┼───────────────────────────┼─────────────────┼────────────────────────────┤
│ conv2d_40 (Conv2D)            │ (None, 4, 4, 128)         │          67,712 │ average_pooling2d_1[0][0]  │
├───────────────────────────────┼───────────────────────────┼─────────────────┼────────────────────────────┤
│ flatten_2 (Flatten)           │ (None, 1024)              │               0 │ average_pooling2d_2[0][0]  │
├───────────────────────────────┼───────────────────────────┼─────────────────┼────────────────────────────┤
│ flatten (Flatten)             │ (None, 2048)              │               0 │ conv2d_21[0][0]            │
├───────────────────────────────┼───────────────────────────┼─────────────────┼────────────────────────────┤
│ flatten_1 (Flatten)           │ (None, 2048)              │               0 │ conv2d_40[0][0]            │
├───────────────────────────────┼───────────────────────────┼─────────────────┼────────────────────────────┤
│ dropout_2 (Dropout)           │ (None, 1024)              │               0 │ flatten_2[0][0]            │
├───────────────────────────────┼───────────────────────────┼─────────────────┼────────────────────────────┤
│ dense (Dense)                 │ (None, 256)               │         524,544 │ flatten[0][0]              │
├───────────────────────────────┼───────────────────────────┼─────────────────┼────────────────────────────┤
│ dense_1 (Dense)               │ (None, 256)               │         524,544 │ flatten_1[0][0]            │
├───────────────────────────────┼───────────────────────────┼─────────────────┼────────────────────────────┤
│ dense_2 (Dense)               │ (None, 256)               │         262,400 │ dropout_2[0][0]            │
├───────────────────────────────┼───────────────────────────┼─────────────────┼────────────────────────────┤
│ dropout (Dropout)             │ (None, 256)               │               0 │ dense[0][0]                │
├───────────────────────────────┼───────────────────────────┼─────────────────┼────────────────────────────┤
│ dropout_1 (Dropout)           │ (None, 256)               │               0 │ dense_1[0][0]              │
├───────────────────────────────┼───────────────────────────┼─────────────────┼────────────────────────────┤
│ main (Dense)                  │ (None, 4)                 │           1,028 │ dense_2[0][0]              │
├───────────────────────────────┼───────────────────────────┼─────────────────┼────────────────────────────┤
│ aux1 (Dense)                  │ (None, 4)                 │           1,028 │ dropout[0][0]              │
├───────────────────────────────┼───────────────────────────┼─────────────────┼────────────────────────────┤
│ aux2 (Dense)                  │ (None, 4)                 │           1,028 │ dropout_1[0][0]            │
└───────────────────────────────┴───────────────────────────┴─────────────────┴────────────────────────────┘
 Total params: 7,422,524 (28.31 MB)
 Trainable params: 7,422,012 (28.31 MB)
 Non-trainable params: 512 (2.00 KB)

2024-05-09 22:13:28,698 [INFO] Confusion Matrix:
[[197   7   0   0]
 [ 17 210   1   0]
 [  3   5 193  11]
 [  3   1   2 234]]
2024-05-09 22:13:28,801 [INFO] Classification Report:
…
