2024-04-08 06:08:15,609 [INFO] Model architecture: Model: "sequential_105"
┏━━━━━━━━━━━━━━━━━━━━━━━━━━━━━━━━━━━━━━┳━━━━━━━━━━━━━━━━━━━━━━━━━━━━━┳━━━━━━━━━━━━━━━━━┓
┃ Layer (type)                         ┃ Output Shape                ┃         Param # ┃
┡━━━━━━━━━━━━━━━━━━━━━━━━━━━━━━━━━━━━━━╇━━━━━━━━━━━━━━━━━━━━━━━━━━━━━╇━━━━━━━━━━━━━━━━━┩
│ conv_lstm2d_420 (ConvLSTM2D)         │ (None, 20, 62, 62, 4)       │           1,024 │
├──────────────────────────────────────┼─────────────────────────────┼─────────────────┤
│ max_pooling3d_420 (MaxPooling3D)     │ (None, 20, 31, 31, 4)       │               0 │
├──────────────────────────────────────┼─────────────────────────────┼─────────────────┤
│ time_distributed_315                 │ (None, 20, 31, 31, 4)       │               0 │
│ (TimeDistributed)                    │                             │                 │
├──────────────────────────────────────┼─────────────────────────────┼─────────────────┤
│ conv_lstm2d_421 (ConvLSTM2D)         │ (None, 20, 29, 29, 8)       │           3,488 │
├──────────────────────────────────────┼─────────────────────────────┼─────────────────┤
│ max_pooling3d_421 (MaxPooling3D)     │ (None, 20, 15, 15, 8)       │               0 │
├──────────────────────────────────────┼─────────────────────────────┼─────────────────┤
│ time_distributed_316                 │ (None, 20, 15, 15, 8)       │               0 │
│ (TimeDistributed)                    │                             │                 │
├──────────────────────────────────────┼─────────────────────────────┼─────────────────┤
│ conv_lstm2d_422 (ConvLSTM2D)         │ (None, 20, 13, 13, 14)      │          11,144 │
├──────────────────────────────────────┼─────────────────────────────┼─────────────────┤
│ max_pooling3d_422 (MaxPooling3D)     │ (None, 20, 7, 7, 14)        │               0 │
├──────────────────────────────────────┼─────────────────────────────┼─────────────────┤
│ time_distributed_317                 │ (None, 20, 7, 7, 14)        │               0 │
│ (TimeDistributed)                    │                             │                 │
├──────────────────────────────────────┼─────────────────────────────┼─────────────────┤
│ conv_lstm2d_423 (ConvLSTM2D)         │ (None, 20, 5, 5, 16)        │          17,344 │
├──────────────────────────────────────┼─────────────────────────────┼─────────────────┤
│ max_pooling3d_423 (MaxPooling3D)     │ (None, 20, 3, 3, 16)        │               0 │
├──────────────────────────────────────┼─────────────────────────────┼─────────────────┤
│ flatten_105 (Flatten)                │ (None, 2880)                │               0 │
├──────────────────────────────────────┼─────────────────────────────┼─────────────────┤
│ dense_105 (Dense)                    │ (None, 20)                  │          57,620 │
└──────────────────────────────────────┴─────────────────────────────┴─────────────────┘
 Total params: 90,620 (353.98 KB)
 Trainable params: 90,620 (353.98 KB)
 Non-trainable params: 0 (0.00 B)

2024-04-08 06:37:34,038 [INFO] Confusion Matrix:
[[ 8  0  0  0  0  1  0  0  4  0  0  0  1  4  1  0  0  2  0  3]
 [ 0 14  0  0  0  0  0  1  2  1  0  0  2  2  2  0  0  2  0  1]
 [ 1  0 14  0  1  0  3  0  0  0  0  0  0  0  0  0  0  0  3  0]
…
