2024-04-06 08:14:42,470 [INFO] Model architecture: Model: "sequential_190"
┏━━━━━━━━━━━━━━━━━━━━━━━━━━━━━━━━━━━━━━┳━━━━━━━━━━━━━━━━━━━━━━━━━━━━━┳━━━━━━━━━━━━━━━━━┓
┃ Layer (type)                         ┃ Output Shape                ┃         Param # ┃
┡━━━━━━━━━━━━━━━━━━━━━━━━━━━━━━━━━━━━━━╇━━━━━━━━━━━━━━━━━━━━━━━━━━━━━╇━━━━━━━━━━━━━━━━━┩
│ conv_lstm2d_760 (ConvLSTM2D)         │ (None, 20, 30, 30, 4)       │           1,024 │
├──────────────────────────────────────┼─────────────────────────────┼─────────────────┤
│ max_pooling3d_760 (MaxPooling3D)     │ (None, 20, 15, 15, 4)       │               0 │
├──────────────────────────────────────┼─────────────────────────────┼─────────────────┤
│ time_distributed_570                 │ (None, 20, 15, 15, 4)       │               0 │
│ (TimeDistributed)                    │                             │                 │
├──────────────────────────────────────┼─────────────────────────────┼─────────────────┤
│ conv_lstm2d_761 (ConvLSTM2D)         │ (None, 20, 13, 13, 8)       │           3,488 │
├──────────────────────────────────────┼─────────────────────────────┼─────────────────┤
│ max_pooling3d_761 (MaxPooling3D)     │ (None, 20, 7, 7, 8)         │               0 │
├──────────────────────────────────────┼─────────────────────────────┼─────────────────┤
│ time_distributed_571                 │ (None, 20, 7, 7, 8)         │               0 │
│ (TimeDistributed)                    │                             │                 │
├──────────────────────────────────────┼─────────────────────────────┼─────────────────┤
│ conv_lstm2d_762 (ConvLSTM2D)         │ (None, 20, 5, 5, 14)        │          11,144 │
├──────────────────────────────────────┼─────────────────────────────┼─────────────────┤
│ max_pooling3d_762 (MaxPooling3D)     │ (None, 20, 3, 3, 14)        │               0 │
├──────────────────────────────────────┼─────────────────────────────┼─────────────────┤
│ time_distributed_572                 │ (None, 20, 3, 3, 14)        │               0 │
│ (TimeDistributed)                    │                             │                 │
├──────────────────────────────────────┼─────────────────────────────┼─────────────────┤
│ conv_lstm2d_763 (ConvLSTM2D)         │ (None, 20, 1, 1, 16)        │          17,344 │
├──────────────────────────────────────┼─────────────────────────────┼─────────────────┤
│ max_pooling3d_763 (MaxPooling3D)     │ (None, 20, 1, 1, 16)        │               0 │
├──────────────────────────────────────┼─────────────────────────────┼─────────────────┤
│ flatten_190 (Flatten)                │ (None, 320)                 │               0 │
├──────────────────────────────────────┼─────────────────────────────┼─────────────────┤
│ dense_190 (Dense)                    │ (None, 20)                  │           6,420 │
└──────────────────────────────────────┴─────────────────────────────┴─────────────────┘
 Total params: 39,420 (153.98 KB)
 Trainable params: 39,420 (153.98 KB)
 Non-trainable params: 0 (0.00 B)

2024-04-06 08:22:22,446 [INFO] Confusion Matrix:
[[21  0  0  0  0  0  0  0  0  0  0  0  0  0  0  0  0  0  0  0]
 [ 0 34  0  0  0  0  0  0  0  0  0  0  1  0  0  0  1  0  0  0]
 [ 0  0 17  0  0  0  0  0  0  0  0  0  0  0  0  1  0  0  0  0]
…
