2024-04-06 07:49:36,144 [INFO] Model architecture: Model: "sequential_185"
┏━━━━━━━━━━━━━━━━━━━━━━━━━━━━━━━━━━━━━━┳━━━━━━━━━━━━━━━━━━━━━━━━━━━━━┳━━━━━━━━━━━━━━━━━┓
┃ Layer (type)                         ┃ Output Shape                ┃         Param # ┃
┡━━━━━━━━━━━━━━━━━━━━━━━━━━━━━━━━━━━━━━╇━━━━━━━━━━━━━━━━━━━━━━━━━━━━━╇━━━━━━━━━━━━━━━━━┩
│ conv_lstm2d_740 (ConvLSTM2D)         │ (None, 20, 30, 30, 4)       │           1,024 │
├──────────────────────────────────────┼─────────────────────────────┼─────────────────┤
│ max_pooling3d_740 (MaxPooling3D)     │ (None, 20, 15, 15, 4)       │               0 │
├──────────────────────────────────────┼─────────────────────────────┼─────────────────┤
│ time_distributed_555                 │ (None, 20, 15, 15, 4)       │               0 │
│ (TimeDistributed)                    │                             │                 │
├──────────────────────────────────────┼─────────────────────────────┼─────────────────┤
│ conv_lstm2d_741 (ConvLSTM2D)         │ (None, 20, 13, 13, 8)       │           3,488 │
├──────────────────────────────────────┼─────────────────────────────┼─────────────────┤
│ max_pooling3d_741 (MaxPooling3D)     │ (None, 20, 7, 7, 8)         │               0 │
├──────────────────────────────────────┼─────────────────────────────┼─────────────────┤
│ time_distributed_556                 │ (None, 20, 7, 7, 8)         │               0 │
│ (TimeDistributed)                    │                             │                 │
├──────────────────────────────────────┼─────────────────────────────┼─────────────────┤
│ conv_lstm2d_742 (ConvLSTM2D)         │ (None, 20, 5, 5, 14)        │          11,144 │
├──────────────────────────────────────┼─────────────────────────────┼─────────────────┤
│ max_pooling3d_742 (MaxPooling3D)     │ (None, 20, 3, 3, 14)        │               0 │
├──────────────────────────────────────┼─────────────────────────────┼─────────────────┤
│ time_distributed_557                 │ (None, 20, 3, 3, 14)        │               0 │
│ (TimeDistributed)                    │                             │                 │
├──────────────────────────────────────┼─────────────────────────────┼─────────────────┤
│ conv_lstm2d_743 (ConvLSTM2D)         │ (None, 20, 1, 1, 16)        │          17,344 │
├──────────────────────────────────────┼─────────────────────────────┼─────────────────┤
│ max_pooling3d_743 (MaxPooling3D)     │ (None, 20, 1, 1, 16)        │               0 │
├──────────────────────────────────────┼─────────────────────────────┼─────────────────┤
│ flatten_185 (Flatten)                │ (None, 320)                 │               0 │
├──────────────────────────────────────┼─────────────────────────────┼─────────────────┤
│ dense_185 (Dense)                    │ (None, 20)                  │           6,420 │
└──────────────────────────────────────┴─────────────────────────────┴─────────────────┘
 Total params: 39,420 (153.98 KB)
 Trainable params: 39,420 (153.98 KB)
 Non-trainable params: 0 (0.00 B)

2024-04-06 08:02:30,997 [INFO] Confusion Matrix:
[[20  0  0  0  0  0  0  0  0  0  0  0  0  0  0  0  1  0  0  0]
 [ 0 33  0  0  0  0  0  1  0  0  0  0  1  1  0  0  0  0  0  0]
 [ 0  0 15  0  0  1  0  0  0  0  0  0  0  0  0  1  1  0  0  0]
…
