2024-04-06 06:12:11,445 [INFO] Model architecture: Model: "sequential_165"
┏━━━━━━━━━━━━━━━━━━━━━━━━━━━━━━━━━━━━━━┳━━━━━━━━━━━━━━━━━━━━━━━━━━━━━┳━━━━━━━━━━━━━━━━━┓
┃ Layer (type)                         ┃ Output Shape                ┃         Param # ┃
┡━━━━━━━━━━━━━━━━━━━━━━━━━━━━━━━━━━━━━━╇━━━━━━━━━━━━━━━━━━━━━━━━━━━━━╇━━━━━━━━━━━━━━━━━┩
│ conv_lstm2d_660 (ConvLSTM2D)         │ (None, 20, 30, 30, 4)       │           1,024 │
├──────────────────────────────────────┼─────────────────────────────┼─────────────────┤
│ max_pooling3d_660 (MaxPooling3D)     │ (None, 20, 15, 15, 4)       │               0 │
├──────────────────────────────────────┼─────────────────────────────┼─────────────────┤
│ time_distributed_495                 │ (None, 20, 15, 15, 4)       │               0 │
│ (TimeDistributed)                    │                             │                 │
├──────────────────────────────────────┼─────────────────────────────┼─────────────────┤
│ conv_lstm2d_661 (ConvLSTM2D)         │ (None, 20, 13, 13, 8)       │           3,488 │
├──────────────────────────────────────┼─────────────────────────────┼─────────────────┤
│ max_pooling3d_661 (MaxPooling3D)     │ (None, 20, 7, 7, 8)         │               0 │
├──────────────────────────────────────┼─────────────────────────────┼─────────────────┤
│ time_distributed_496                 │ (None, 20, 7, 7, 8)         │               0 │
│ (TimeDistributed)                    │                             │                 │
├──────────────────────────────────────┼─────────────────────────────┼─────────────────┤
│ conv_lstm2d_662 (ConvLSTM2D)         │ (None, 20, 5, 5, 14)        │          11,144 │
├──────────────────────────────────────┼─────────────────────────────┼─────────────────┤
│ max_pooling3d_662 (MaxPooling3D)     │ (None, 20, 3, 3, 14)        │               0 │
├──────────────────────────────────────┼─────────────────────────────┼─────────────────┤
│ time_distributed_497                 │ (None, 20, 3, 3, 14)        │               0 │
│ (TimeDistributed)                    │                             │                 │
├──────────────────────────────────────┼─────────────────────────────┼─────────────────┤
│ conv_lstm2d_663 (ConvLSTM2D)         │ (None, 20, 1, 1, 16)        │          17,344 │
├──────────────────────────────────────┼─────────────────────────────┼─────────────────┤
│ max_pooling3d_663 (MaxPooling3D)     │ (None, 20, 1, 1, 16)        │               0 │
├──────────────────────────────────────┼─────────────────────────────┼─────────────────┤
│ flatten_165 (Flatten)                │ (None, 320)                 │               0 │
├──────────────────────────────────────┼─────────────────────────────┼─────────────────┤
│ dense_165 (Dense)                    │ (None, 20)                  │           6,420 │
└──────────────────────────────────────┴─────────────────────────────┴─────────────────┘
 Total params: 39,420 (153.98 KB)
 Trainable params: 39,420 (153.98 KB)
 Non-trainable params: 0 (0.00 B)

2024-04-06 06:25:02,544 [INFO] Confusion Matrix:
[[20  0  0  0  0  0  0  0  0  0  0  0  0  0  0  0  0  0  1  0]
 [ 0 35  0  0  0  0  0  1  0  0  0  0  0  0  0  0  0  0  0  0]
 [ 0  0 14  0  0  0  0  1  1  0  1  0  0  0  0  1  0  0  0  0]
…
