…
2024-04-09 07:40:55,546 [INFO] Finished processing the DVORAK_CUSTOM dataset.
2024-04-09 07:40:55,594 [INFO] Building Human Activity Recognition Model - ConvLSTM variant.
2024-04-09 07:40:55,636 [INFO] Finished building Human Activity Recognition Model - ConvLSTM variant.
2024-04-09 07:40:55,641 [INFO] Model architecture: Model: "sequential_11"
┏━━━━━━━━━━━━━━━━━━━━━━━━━━━━━━━━━━━━━━┳━━━━━━━━━━━━━━━━━━━━━━━━━━━━━┳━━━━━━━━━━━━━━━━━┓
┃ Layer (type)                         ┃ Output Shape                ┃         Param # ┃
┡━━━━━━━━━━━━━━━━━━━━━━━━━━━━━━━━━━━━━━╇━━━━━━━━━━━━━━━━━━━━━━━━━━━━━╇━━━━━━━━━━━━━━━━━┩
│ conv_lstm2d_44 (ConvLSTM2D)          │ (None, 20, 62, 62, 4)       │           1,024 │
├──────────────────────────────────────┼─────────────────────────────┼─────────────────┤
│ max_pooling3d_44 (MaxPooling3D)      │ (None, 20, 31, 31, 4)       │               0 │
├──────────────────────────────────────┼─────────────────────────────┼─────────────────┤
│ time_distributed_33                  │ (None, 20, 31, 31, 4)       │               0 │
│ (TimeDistributed)                    │                             │                 │
├──────────────────────────────────────┼─────────────────────────────┼─────────────────┤
│ conv_lstm2d_45 (ConvLSTM2D)          │ (None, 20, 29, 29, 8)       │           3,488 │
├──────────────────────────────────────┼─────────────────────────────┼─────────────────┤
│ max_pooling3d_45 (MaxPooling3D)      │ (None, 20, 15, 15, 8)       │               0 │
├──────────────────────────────────────┼─────────────────────────────┼─────────────────┤
│ time_distributed_34                  │ (None, 20, 15, 15, 8)       │               0 │
│ (TimeDistributed)                    │                             │                 │
├──────────────────────────────────────┼─────────────────────────────┼─────────────────┤
│ conv_lstm2d_46 (ConvLSTM2D)          │ (None, 20, 13, 13, 14)      │          11,144 │
├──────────────────────────────────────┼─────────────────────────────┼─────────────────┤
│ max_pooling3d_46 (MaxPooling3D)      │ (None, 20, 7, 7, 14)        │               0 │
├──────────────────────────────────────┼─────────────────────────────┼─────────────────┤
│ time_distributed_35                  │ (None, 20, 7, 7, 14)        │               0 │
│ (TimeDistributed)                    │                             │                 │
├──────────────────────────────────────┼─────────────────────────────┼─────────────────┤
│ conv_lstm2d_47 (ConvLSTM2D)          │ (None, 20, 5, 5, 16)        │          17,344 │
├──────────────────────────────────────┼─────────────────────────────┼─────────────────┤
│ max_pooling3d_47 (MaxPooling3D)      │ (None, 20, 3, 3, 16)        │               0 │
├──────────────────────────────────────┼─────────────────────────────┼─────────────────┤
│ flatten_11 (Flatten)                 │ (None, 2880)                │               0 │
├──────────────────────────────────────┼─────────────────────────────┼─────────────────┤
│ dense_11 (Dense)                     │ (None, 4)                   │          11,524 │
└──────────────────────────────────────┴─────────────────────────────┴─────────────────┘
 Total params: 44,524 (173.92 KB)
 Trainable params: 44,524 (173.92 KB)
 Non-trainable params: 0 (0.00 B)

2024-04-09 07:41:11,592 [INFO] Confusion Matrix:
[[4 0 0 0]
 [0 2 0 0]
 [0 0 1 2]
 [0 0 0 4]]
2024-04-09 07:41:11,664 [INFO] Classification Report:
               precision    recall  f1-score   support
…
