…
2024-04-06 02:04:29,291 [INFO] Finished processing the DVORAK_CUSTOM dataset.
2024-04-06 02:04:29,299 [INFO] Building Human Activity Recognition Model - ConvLSTM variant.
2024-04-06 02:04:29,344 [INFO] Finished building Human Activity Recognition Model - ConvLSTM variant.
2024-04-06 02:04:29,351 [INFO] Model architecture: Model: "sequential_100"
┏━━━━━━━━━━━━━━━━━━━━━━━━━━━━━━━━━━━━━━┳━━━━━━━━━━━━━━━━━━━━━━━━━━━━━┳━━━━━━━━━━━━━━━━━┓
┃ Layer (type)                         ┃ Output Shape                ┃         Param # ┃
┡━━━━━━━━━━━━━━━━━━━━━━━━━━━━━━━━━━━━━━╇━━━━━━━━━━━━━━━━━━━━━━━━━━━━━╇━━━━━━━━━━━━━━━━━┩
│ conv_lstm2d_400 (ConvLSTM2D)         │ (None, 10, 30, 30, 4)       │           1,024 │
├──────────────────────────────────────┼─────────────────────────────┼─────────────────┤
│ max_pooling3d_400 (MaxPooling3D)     │ (None, 10, 15, 15, 4)       │               0 │
├──────────────────────────────────────┼─────────────────────────────┼─────────────────┤
│ time_distributed_300                 │ (None, 10, 15, 15, 4)       │               0 │
│ (TimeDistributed)                    │                             │                 │
├──────────────────────────────────────┼─────────────────────────────┼─────────────────┤
│ conv_lstm2d_401 (ConvLSTM2D)         │ (None, 10, 13, 13, 8)       │           3,488 │
├──────────────────────────────────────┼─────────────────────────────┼─────────────────┤
│ max_pooling3d_401 (MaxPooling3D)     │ (None, 10, 7, 7, 8)         │               0 │
├──────────────────────────────────────┼─────────────────────────────┼─────────────────┤
│ time_distributed_301                 │ (None, 10, 7, 7, 8)         │               0 │
│ (TimeDistributed)                    │                             │                 │
├──────────────────────────────────────┼─────────────────────────────┼─────────────────┤
│ conv_lstm2d_402 (ConvLSTM2D)         │ (None, 10, 5, 5, 14)        │          11,144 │
├──────────────────────────────────────┼─────────────────────────────┼─────────────────┤
│ max_pooling3d_402 (MaxPooling3D)     │ (None, 10, 3, 3, 14)        │               0 │
├──────────────────────────────────────┼─────────────────────────────┼─────────────────┤
│ time_distributed_302                 │ (None, 10, 3, 3, 14)        │               0 │
│ (TimeDistributed)                    │                             │                 │
├──────────────────────────────────────┼─────────────────────────────┼─────────────────┤
│ conv_lstm2d_403 (ConvLSTM2D)         │ (None, 10, 1, 1, 16)        │          17,344 │
├──────────────────────────────────────┼─────────────────────────────┼─────────────────┤
│ max_pooling3d_403 (MaxPooling3D)     │ (None, 10, 1, 1, 16)        │               0 │
├──────────────────────────────────────┼─────────────────────────────┼─────────────────┤
│ flatten_100 (Flatten)                │ (None, 160)                 │               0 │
├──────────────────────────────────────┼─────────────────────────────┼─────────────────┤
│ dense_100 (Dense)                    │ (None, 4)                   │             644 │
└──────────────────────────────────────┴─────────────────────────────┴─────────────────┘
 Total params: 33,644 (131.42 KB)
 Trainable params: 33,644 (131.42 KB)
 Non-trainable params: 0 (0.00 B)

2024-04-06 02:04:56,130 [INFO] Confusion Matrix:
[[3 1 0 0]
 [1 1 0 0]
 [0 0 3 0]
 [0 0 1 3]]
2024-04-06 02:04:56,203 [INFO] Classification Report:
               precision    recall  f1-score   support
…
