…
2024-04-06 21:13:53,885 [INFO] Finished processing the DVORAK_CUSTOM dataset.
2024-04-06 21:13:53,909 [INFO] Building Human Activity Recognition Model - ConvLSTM variant.
2024-04-06 21:13:53,966 [INFO] Finished building Human Activity Recognition Model - ConvLSTM variant.
2024-04-06 21:13:53,971 [INFO] Model architecture: Model: "sequential_38"
┏━━━━━━━━━━━━━━━━━━━━━━━━━━━━━━━━━━━━━━┳━━━━━━━━━━━━━━━━━━━━━━━━━━━━━┳━━━━━━━━━━━━━━━━━┓
┃ Layer (type)                         ┃ Output Shape                ┃         Param # ┃
┡━━━━━━━━━━━━━━━━━━━━━━━━━━━━━━━━━━━━━━╇━━━━━━━━━━━━━━━━━━━━━━━━━━━━━╇━━━━━━━━━━━━━━━━━┩
│ conv_lstm2d_152 (ConvLSTM2D)         │ (None, 30, 30, 30, 4)       │           1,024 │
├──────────────────────────────────────┼─────────────────────────────┼─────────────────┤
│ max_pooling3d_152 (MaxPooling3D)     │ (None, 30, 15, 15, 4)       │               0 │
├──────────────────────────────────────┼─────────────────────────────┼─────────────────┤
│ time_distributed_114                 │ (None, 30, 15, 15, 4)       │               0 │
│ (TimeDistributed)                    │                             │                 │
├──────────────────────────────────────┼─────────────────────────────┼─────────────────┤
│ conv_lstm2d_153 (ConvLSTM2D)         │ (None, 30, 13, 13, 8)       │           3,488 │
├──────────────────────────────────────┼─────────────────────────────┼─────────────────┤
│ max_pooling3d_153 (MaxPooling3D)     │ (None, 30, 7, 7, 8)         │               0 │
├──────────────────────────────────────┼─────────────────────────────┼─────────────────┤
│ time_distributed_115                 │ (None, 30, 7, 7, 8)         │               0 │
│ (TimeDistributed)                    │                             │                 │
├──────────────────────────────────────┼─────────────────────────────┼─────────────────┤
│ conv_lstm2d_154 (ConvLSTM2D)         │ (None, 30, 5, 5, 14)        │          11,144 │
├──────────────────────────────────────┼─────────────────────────────┼─────────────────┤
│ max_pooling3d_154 (MaxPooling3D)     │ (None, 30, 3, 3, 14)        │               0 │
├──────────────────────────────────────┼─────────────────────────────┼─────────────────┤
│ time_distributed_116                 │ (None, 30, 3, 3, 14)        │               0 │
│ (TimeDistributed)                    │                             │                 │
├──────────────────────────────────────┼─────────────────────────────┼─────────────────┤
│ conv_lstm2d_155 (ConvLSTM2D)         │ (None, 30, 1, 1, 16)        │          17,344 │
├──────────────────────────────────────┼─────────────────────────────┼─────────────────┤
│ max_pooling3d_155 (MaxPooling3D)     │ (None, 30, 1, 1, 16)        │               0 │
├──────────────────────────────────────┼─────────────────────────────┼─────────────────┤
│ flatten_38 (Flatten)                 │ (None, 480)                 │               0 │
├──────────────────────────────────────┼─────────────────────────────┼─────────────────┤
│ dense_38 (Dense)                     │ (None, 4)                   │           1,924 │
└──────────────────────────────────────┴─────────────────────────────┴─────────────────┘
 Total params: 34,924 (136.42 KB)
 Trainable params: 34,924 (136.42 KB)
 Non-trainable params: 0 (0.00 B)

2024-04-06 21:14:12,154 [INFO] Confusion Matrix:
[[3 0 1 0]
 [1 1 0 0]
 [0 0 3 0]
 [0 0 1 3]]
2024-04-06 21:14:12,229 [INFO] Classification Report:
               precision    recall  f1-score   support
…
