…
2024-04-08 03:21:05,060 [INFO] Finished processing the HMDB dataset.
2024-04-08 03:21:10,027 [INFO] Building Human Activity Recognition Model - ConvLSTM variant.
2024-04-08 03:21:10,706 [INFO] Finished building Human Activity Recognition Model - ConvLSTM variant.
2024-04-08 03:21:10,757 [INFO] Model architecture: Model: "sequential_90"
┏━━━━━━━━━━━━━━━━━━━━━━━━━━━━━━━━━━━━━━┳━━━━━━━━━━━━━━━━━━━━━━━━━━━━━┳━━━━━━━━━━━━━━━━━┓
┃ Layer (type)                         ┃ Output Shape                ┃         Param # ┃
┡━━━━━━━━━━━━━━━━━━━━━━━━━━━━━━━━━━━━━━╇━━━━━━━━━━━━━━━━━━━━━━━━━━━━━╇━━━━━━━━━━━━━━━━━┩
│ conv_lstm2d_360 (ConvLSTM2D)         │ (None, 20, 62, 62, 4)       │           1,024 │
├──────────────────────────────────────┼─────────────────────────────┼─────────────────┤
│ max_pooling3d_360 (MaxPooling3D)     │ (None, 20, 31, 31, 4)       │               0 │
├──────────────────────────────────────┼─────────────────────────────┼─────────────────┤
│ time_distributed_270                 │ (None, 20, 31, 31, 4)       │               0 │
│ (TimeDistributed)                    │                             │                 │
├──────────────────────────────────────┼─────────────────────────────┼─────────────────┤
│ conv_lstm2d_361 (ConvLSTM2D)         │ (None, 20, 29, 29, 8)       │           3,488 │
├──────────────────────────────────────┼─────────────────────────────┼─────────────────┤
│ max_pooling3d_361 (MaxPooling3D)     │ (None, 20, 15, 15, 8)       │               0 │
├──────────────────────────────────────┼─────────────────────────────┼─────────────────┤
│ time_distributed_271                 │ (None, 20, 15, 15, 8)       │               0 │
│ (TimeDistributed)                    │                             │                 │
├──────────────────────────────────────┼─────────────────────────────┼─────────────────┤
│ conv_lstm2d_362 (ConvLSTM2D)         │ (None, 20, 13, 13, 14)      │          11,144 │
├──────────────────────────────────────┼─────────────────────────────┼─────────────────┤
│ max_pooling3d_362 (MaxPooling3D)     │ (None, 20, 7, 7, 14)        │               0 │
├──────────────────────────────────────┼─────────────────────────────┼─────────────────┤
│ time_distributed_272                 │ (None, 20, 7, 7, 14)        │               0 │
│ (TimeDistributed)                    │                             │                 │
├──────────────────────────────────────┼─────────────────────────────┼─────────────────┤
│ conv_lstm2d_363 (ConvLSTM2D)         │ (None, 20, 5, 5, 16)        │          17,344 │
├──────────────────────────────────────┼─────────────────────────────┼─────────────────┤
│ max_pooling3d_363 (MaxPooling3D)     │ (None, 20, 3, 3, 16)        │               0 │
├──────────────────────────────────────┼─────────────────────────────┼─────────────────┤
│ flatten_90 (Flatten)                 │ (None, 2880)                │               0 │
├──────────────────────────────────────┼─────────────────────────────┼─────────────────┤
│ dense_90 (Dense)                     │ (None, 20)                  │          57,620 │
└──────────────────────────────────────┴─────────────────────────────┴─────────────────┘
 Total params: 90,620 (353.98 KB)
 Trainable params: 90,620 (353.98 KB)
 Non-trainable params: 0 (0.00 B)

2024-04-08 03:47:13,096 [INFO] Confusion Matrix:
[[ 7  1  0  1  0  1  1  1  3  0  0  0  0  2  0  2  0  0  0  5]
 [ 5 11  0  0  2  1  1  1  1  0  1  0  1  0  0  0  0  1  0  2]
 [ 0  2 11  1  0  0  0  2  1  0  0  0  1  1  0  0  0  0  3  0]
…
