…
2024-04-06 06:39:17,079 [INFO] Finished processing the UCF50 dataset.
2024-04-06 06:39:18,395 [INFO] Building Human Activity Recognition Model - ConvLSTM variant.
2024-04-06 06:39:18,441 [INFO] Finished building Human Activity Recognition Model - ConvLSTM variant.
2024-04-06 06:39:18,449 [INFO] Model architecture: Model: "sequential_170"
┏━━━━━━━━━━━━━━━━━━━━━━━━━━━━━━━━━━━━━━┳━━━━━━━━━━━━━━━━━━━━━━━━━━━━━┳━━━━━━━━━━━━━━━━━┓
┃ Layer (type)                         ┃ Output Shape                ┃         Param # ┃
┡━━━━━━━━━━━━━━━━━━━━━━━━━━━━━━━━━━━━━━╇━━━━━━━━━━━━━━━━━━━━━━━━━━━━━╇━━━━━━━━━━━━━━━━━┩
│ conv_lstm2d_680 (ConvLSTM2D)         │ (None, 20, 30, 30, 4)       │           1,024 │
├──────────────────────────────────────┼─────────────────────────────┼─────────────────┤
│ max_pooling3d_680 (MaxPooling3D)     │ (None, 20, 15, 15, 4)       │               0 │
├──────────────────────────────────────┼─────────────────────────────┼─────────────────┤
│ time_distributed_510                 │ (None, 20, 15, 15, 4)       │               0 │
│ (TimeDistributed)                    │                             │                 │
├──────────────────────────────────────┼─────────────────────────────┼─────────────────┤
│ conv_lstm2d_681 (ConvLSTM2D)         │ (None, 20, 13, 13, 8)       │           3,488 │
├──────────────────────────────────────┼─────────────────────────────┼─────────────────┤
│ max_pooling3d_681 (MaxPooling3D)     │ (None, 20, 7, 7, 8)         │               0 │
├──────────────────────────────────────┼─────────────────────────────┼─────────────────┤
│ time_distributed_511                 │ (None, 20, 7, 7, 8)         │               0 │
│ (TimeDistributed)                    │                             │                 │
├──────────────────────────────────────┼─────────────────────────────┼─────────────────┤
│ conv_lstm2d_682 (ConvLSTM2D)         │ (None, 20, 5, 5, 14)        │          11,144 │
├──────────────────────────────────────┼─────────────────────────────┼─────────────────┤
│ max_pooling3d_682 (MaxPooling3D)     │ (None, 20, 3, 3, 14)        │               0 │
├──────────────────────────────────────┼─────────────────────────────┼─────────────────┤
│ time_distributed_512                 │ (None, 20, 3, 3, 14)        │               0 │
│ (TimeDistributed)                    │                             │                 │
├──────────────────────────────────────┼─────────────────────────────┼─────────────────┤
│ conv_lstm2d_683 (ConvLSTM2D)         │ (None, 20, 1, 1, 16)        │          17,344 │
├──────────────────────────────────────┼─────────────────────────────┼─────────────────┤
│ max_pooling3d_683 (MaxPooling3D)     │ (None, 20, 1, 1, 16)        │               0 │
├──────────────────────────────────────┼─────────────────────────────┼─────────────────┤
│ flatten_170 (Flatten)                │ (None, 320)                 │               0 │
├──────────────────────────────────────┼─────────────────────────────┼─────────────────┤
│ dense_170 (Dense)                    │ (None, 20)                  │           6,420 │
└──────────────────────────────────────┴─────────────────────────────┴─────────────────┘
 Total params: 39,420 (153.98 KB)
 Trainable params: 39,420 (153.98 KB)
 Non-trainable params: 0 (0.00 B)

2024-04-06 06:46:20,639 [INFO] Confusion Matrix:
[[21  0  0  0  0  0  0  0  0  0  0  0  0  0  0  0  0  0  0  0]
 [ 0 35  0  0  0  0  0  1  0  0  0  0  0  0  0  0  0  0  0  0]
 [ 0  0 17  0  0  0  0  0  0  0  0  0  0  0  1  0  0  0  0  0]
…
